…
   "source": [
    "### Network Architecture (5p)\n",
    "\n",
    "Define a model for binary classification compatible with the data and labels provided before. "
   ]
  },
  {
   "cell_type": "code",
   "execution_count": 57,
   "metadata": {},
   "outputs": [
    {
     "name": "stdout",
     "output_type": "stream",
     "text": [
      "_________________________________________________________________\n",
      "Layer (type)                 Output Shape              Param #   \n",
      "=================================================================\n",
      "input_12 (InputLayer)        (None, 101, 101, 3)       0         \n",
      "_________________________________________________________________\n",
      "block1_conv1 (Conv2D)        (None, 101, 101, 64)      1792      \n",
      "_________________________________________________________________\n",
      "block1_conv2 (Conv2D)        (None, 101, 101, 64)      36928     \n",
      "_________________________________________________________________\n",
      "block1_pool (MaxPooling2D)   (None, 50, 50, 64)        0         \n",
      "_________________________________________________________________\n",
      "block2_conv1 (Conv2D)        (None, 50, 50, 128)       73856     \n",
      "_________________________________________________________________\n",
      "block2_conv2 (Conv2D)        (None, 50, 50, 128)       147584    \n",
      "_________________________________________________________________\n",
      "block2_pool (MaxPooling2D)   (None, 25, 25, 128)       0         \n",
      "_________________________________________________________________\n",
      "block3_conv1 (Conv2D)        (None, 25, 25, 256)       295168    \n",
      "_________________________________________________________________\n",
      "block3_conv2 (Conv2D)        (None, 25, 25, 256)       590080    \n",
      "_________________________________________________________________\n",
      "block3_conv3 (Conv2D)        (None, 25, 25, 256)       590080    \n",
      "_________________________________________________________________\n",
      "block3_pool (MaxPooling2D)   (None, 12, 12, 256)       0         \n",
      "_________________________________________________________________\n",
      "block4_conv1 (Conv2D)        (None, 12, 12, 512)       1180160   \n",
      "_________________________________________________________________\n",
      "block4_conv2 (Conv2D)        (None, 12, 12, 512)       2359808   \n",
      "_________________________________________________________________\n",
      "block4_conv3 (Conv2D)        (None, 12, 12, 512)       2359808   \n",
      "_________________________________________________________________\n",
      "block4_pool (MaxPooling2D)   (None, 6, 6, 512)         0         \n",
      "_________________________________________________________________\n",
      "block5_conv1 (Conv2D)        (None, 6, 6, 512)         2359808   \n",
      "_________________________________________________________________\n",
      "block5_conv2 (Conv2D)        (None, 6, 6, 512)         2359808   \n",
      "_________________________________________________________________\n",
      "block5_conv3 (Conv2D)        (None, 6, 6, 512)         2359808   \n",
      "_________________________________________________________________\n",
      "block5_pool (MaxPooling2D)   (None, 3, 3, 512)         0         \n",
      "_________________________________________________________________\n",
      "flatten (Flatten)            (None, 4608)              0         \n",
      "_________________________________________________________________\n",
      "prediction (Dense)           (None, 2)                 9218      \n",
      "=================================================================\n",
      "Total params: 14,723,906\n",
      "Trainable params: 9,218\n",
      "Non-trainable params: 14,714,688\n",
      "_________________________________________________________________\n"
     ]
    }
   ],
   "source": [
    "from keras import backend as K\n",
    "from keras.applications.imagenet_utils import _obtain_input_shape\n",
…
